models/best_model_state_dict.pth (torch, 17320 bytes, 7 tensors)

model.0.weight f4 [54, 25]
000000 05 fb 92 3d 57 3f e7 bd 09 8b 6d 3c bb 83 3b be
       0.071767844 -0.11291378 0.014498481 -0.1831197
000010 a5 af 57 be 5a 82 61 be 51 a1 e4 3d 8a b5 ab 3d
       -0.21063097 -0.22022381 0.11163581 0.08384235
000020 44 6b 32 bd 27 4e 12 be 3c cb 76 3d 2a 21 11 3e
       -0.043559328 -0.14287625 0.060252413 0.14172807
000030 35 92 30 be 2d e1 35 be 9d 7b 06 bd 89 25 d0 3d
       -0.17243274 -0.17761679 -0.03283273 0.10163409
000040 ed 54 c5 3d 0b 9d 4c bc 61 f2 0e bd b9 e2 a0 3d
       0.09635339 -0.012488614 -0.03489912 0.07855744
000050 50 4a ba 3d 8b c7 b4 bd 3f 78 d5 bd 08 0f 12 3d
       0.09096205 -0.08827122 -0.10423326 0.035658866
000060 4a 8c f5 3d fb 0c 9d 3d f3 3a 12 be 00 ed 16 bd
       0.11989649 0.076684915 -0.142803 -0.036847115
000070 4b b4 6b be 11 fa 87 3d 39 ff 19 be b4 87 65 be
       -0.23017995 0.06639493 -0.15038766 -0.22415048
000080 e7 5a 1a be 80 d2 69 3d 92 04 b3 3c 6c 1d 4f bd
       -0.15073739 0.057085514 0.021852765 -0.05056517
000090 aa 5d 12 3e e0 04 6f bc a7 c8 84 3d 50 ab f9 bd
       0.14293543 -0.014588565 0.06483584 -0.121908784
0000a0 ff ab 09 bd dc a9 30 3d 65 89 59 3d cf 9c e5 bd
       -0.033611294 0.04313074 0.053109545 -0.112115495
0000b0 92 b1 0a be 64 51 71 3e 93 1b 46 bd bc 7d 2c 3e
       -0.135443 0.23566204 -0.04836614 0.16844839
0000c0 be 04 03 3e 84 bf 77 3e 07 51 2c be ba cd bd 3c
       0.12794778 0.24194151 -0.16827784 0.023169387
0000d0 e3 6f 21 3e e6 8b fd 3d d7 7a 33 be 66 d8 11 be
       0.15765338 0.12380199 -0.17527328 -0.14242706
0000e0 ec 70 76 bd ef fd 09 3d c8 00 44 be 1b 88 21 bd
       -0.060166284 0.033689436 -0.19140923 -0.03943644
0000f0 18 47 89 bd 13 16 cd 3d 7f 19 4c bd 4d 48 07 be
       -0.06703013 0.10013976 -0.049829002 -0.13211174
000100 6a 10 d7 bd e4 4f a0 bd 25 f9 3f 3e 7f 4e 14 be
       -0.105011776 -0.07827738 0.18747385 -0.14483069
000110 53 15 ed bd 01 cf 67 bd 42 86 71 39 a5 29 83 bc
       -0.11576333 -0.0565939 0.00023033566 -0.016011069
000120 a9 f3 0b be 9f 13 16 3d a8 c1 24 3d ae 97 d7 3c
       -0.13667168 0.036639806 0.040223747 0.026317444
000130 82 81 20 3d 5d 81 1b 3e 9b 3d cd 3d d5 11 26 be
       0.03918601 0.15186067 0.10021516 -0.1621774
000140 9a 8c 28 be 22 8b 2f 3d aa eb 0a be 55 bb 46 3e
       -0.16459885 0.042857297 -0.13566461 0.19407399
000150 60 94 32 3a 7b 9f 66 be a7 da 21 be 64 42 56 3e
       0.0006812271 -0.22521774 -0.15806065 0.20923764
000160 31 1e 1f bd cc be 1b 3e 1a af a5 bd 12 2d 29 bd
       -0.038847152 0.15209502 -0.080900386 -0.041302748
000170 8e a4 d2 3b 42 58 44 3e db 8a 3a 3e c5 87 5e bc
       0.006428308 0.19174293 0.18217032 -0.013582175
000180 5c 7e d5 3d c6 b3 33 3d 21 11 51 be e2 29 07 3e
       0.10424492 0.043872617 -0.2041669 0.13199571
000190 47 c2 29 3e 80 6e 40 3e 42 f9 89 3d 8f 4c ed bd
       0.16578017 0.18792152 0.06736995 -0.11586868
0001a0 f0 a1 0a bd c7 8f 5b 3d ee 8d 24 3e 76 51 63 3e
       -0.033845842 0.053603914 0.16069767 0.22199044
0001b0 b9 d1 05 3e ad 8e fe 3d 9e 3c 10 3e 52 f4 36 3e
       0.13068284 0.12429557 0.14085624 0.17866638
0001c0 02 ee ac 3d 1f e1 ed 3b 34 ab 3f 3e ef 0e 18 3e
       0.08443834 0.0072595025 0.18717653 0.14849447
0001d0 b3 5a 8a 3e 73 60 b4 bd 7d b8 cc 3d 85 32 75 3e
       0.27022323 -0.08807459 0.09996126 0.23945053
0001e0 57 f0 b7 bd ca d8 9d bd eb e4 0e 3d 5e a4 25 be
       -0.08981388 -0.07707365 0.034886282 -0.16175982
0001f0 ed 05 07 be 89 ca 12 3d 85 ad 5c 3e 55 ff 91 3c
       -0.13185854 0.035837684 0.21550567 0.017821947
000200 55 d7 48 3c 9a 00 30 3d 2d 89 58 3d 37 54 9d 3d
       0.01225837 0.042969324 0.052865196 0.07682078
000210 31 8a 00 3e f7 b1 a1 3d 0f 0a 2a 3e 89 28 6d 3d
       0.12552716 0.07895272 0.166054 0.057899985
000220 da 94 97 3d d1 c9 32 be c1 16 0b 3e a1 b8 bc 3d
       0.07401438 -0.174598 0.13582899 0.09214903
000230 a4 4f 17 3e c7 95 0b 3e 2b 1d 00 be 8c a7 50 bd
       0.14776474 0.13631354 -0.12511127 -0.050941035
000240 94 95 e4 bd 86 5c 4f 3e ca 21 3c 3e d9 de c7 bc
       -0.11161342 0.20250139 0.18372265 -0.024398254
000250 8f c5 57 3d ee a7 18 be e5 ee d9 bd 47 29 bc bd
       0.05267864 -0.1490781 -0.10641269 -0.091875605
000260 74 c5 08 3e 8c 82 b0 bd f8 e7 c6 3c 51 29 bd bc
       0.13356572 -0.0861865 0.024280533 -0.02309099
000270 6e 15 7c 3e 1e 86 d7 bc cc 74 f1 bd 51 74 6b 3d
       0.2461755 -0.02630907 -0.11789855 0.057483975
000280 bc 5a e3 3d 29 d2 46 3e de d1 9f bd f4 3e 2b 3e
       0.111012906 0.19416107 -0.07803701 0.16723233
000290 b7 07 41 3e e5 22 45 3e 54 4c cf 3c 5a e1 dc 3d
       0.18850599 0.19251592 0.02530495 0.1078517
0002a0 51 47 20 be d5 cc 23 3e 53 fe 3e be d5 3c 86 bd
       -0.15652205 0.15996106 -0.18651704 -0.065545715
0002b0 7a 2f 86 bb 87 6d c8 3d 0f 56 82 3d 9c 9c ce bd
       -0.004095015 0.09786516 0.063640706 -0.100884646
0002c0 62 4f 52 bd 9b 0c 16 3d d5 3d 77 3e ac a0 3a bd
       -0.051345237 0.036633115 0.24144681 -0.045563385
0002d0 d5 99 5b 3d 43 77 a2 3d f5 07 82 bd aa 0f b5 bb
       0.053613503 0.079329036 -0.06349174 -0.005525549
0002e0 f9 1f b0 3d fa 1d 79 3e be 6b 1f be 83 63 a6 bd
       0.08599848 0.24327841 -0.15568444 -0.08124449
0002f0 eb 71 31 3d 40 d6 83 bd 6d ae 03 be aa 82 3a 3e
       0.04332153 -0.06437349 -0.12859507 0.18213907
000300 91 ee 76 bc d6 f5 61 3e 0a e8 fc 3c 35 15 6a be
       -0.015071527 0.22066435 0.030872364 -0.22859652
000310 cd b3 5f be ae 52 d0 3d e7 a4 2a be ff ca 3e 3e
       -0.21845932 0.1017202 -0.16664468 0.18632124
000320 44 1e 2d be 48 12 45 bd 5c a8 d7 bd df 3d e7 bd
       -0.16906077 -0.048113137 -0.10530159 -0.11291098
000330 33 8f 98 3d b2 dd 58 be e0 cc 9b 3d af 3e 72 3d
       0.07449188 -0.2117832 0.07607436 0.05914181
000340 ea 12 b4 3c 9d 81 ae bd 85 57 73 be 26 95 56 be
       0.021981675 -0.085208155 -0.23763855 -0.20955333
000350 91 9f e0 3c 47 47 5f be 67 97 f7 3d f4 18 8b 3d
       0.027419837 -0.21804534 0.120894246 0.06791869
000360 9b 15 53 3e ee a7 9e bd 20 ae dc bd 40 19 11 3d
       0.2061371 -0.07746874 -0.10775399 0.03542447
000370 f8 54 10 3e ef 72 cd 3c 9a d1 60 be 20 f7 47 be
       0.14094913 0.025079219 -0.21954957 -0.19527864
000380 5f d1 f9 3c ef 89 9b 3d 9e 5c 26 be 08 cb ee bd
       0.030495344 0.07594668 -0.16246268 -0.11659819
000390 af ed 52 3e 5f be 0c bc bf 6c ca bd 41 bb f7 bd
       0.20598482 -0.00859031 -0.09884023 -0.12096263
0003a0 9a be 55 bd 24 65 79 bd 5e 38 c9 bd 50 19 0c 3d
       -0.052183725 -0.06088747 -0.09825204 0.034203827
0003b0 42 7f d7 bd 5f 3c b0 3d 89 16 17 3e be 39 42 be
       -0.105223194 0.08605265 0.1475469 -0.1896734
0003c0 46 2a 35 3e f2 a9 90 3d eb 2b 95 bd 34 8d 31 3e
       0.17691907 0.070636645 -0.07283767 0.17339021
0003d0 45 87 4a 3e 2e a8 81 be 1c 25 3b 3e 2b 2f 67 be
       0.19778164 -0.25323623 0.18275875 -0.22576587
0003e0 f2 4a 82 3d 1c e3 72 3d 48 af 3e bd 93 41 a2 bb
       0.06361951 0.05929862 -0.04655388 -0.0049516647
0003f0 51 b3 e2 3d 8b 59 3a be cd 12 42 be 83 7b f6 bd
       0.11069358 -0.1819822 -0.18952484 -0.12035277

model.0.bias f4 [54]
000000 bb 35 73 bd 84 31 7a bd ab 1a 2e bd b5 27 ef bc
       -0.059377413 -0.061082378 -0.0425059 -0.029193738
000010 14 ef d4 3d a9 8b 32 be 37 d5 f7 bd a7 42 39 3d
       0.10397163 -0.17436089 -0.121012144 0.04522958
000020 9d 88 0b 3e 30 fd 25 3e 58 ea 08 bd b7 31 70 3e
       0.13626333 0.16209865 -0.033426613 0.23456465
000030 05 97 3e 3e e6 b0 f9 bd 99 bf 87 bd 1a c2 90 bd
       0.18612297 -0.12191944 -0.06628341 -0.07068272
000040 d2 33 ed bd bf cf 87 3e ad 90 4d 3e 12 3e e9 bd
       -0.115821496 0.26525685 0.2007472 -0.11388792
000050 af 00 cb bd 2a 6c 30 3e 7b b5 12 bd a9 a5 10 be
       -0.0991224 0.17228761 -0.035817605 -0.14125694
000060 9e 00 79 3d d0 55 79 3d 00 7e 28 3e 58 84 90 3d
       0.060791604 0.060872853 0.16454315 0.070564926
000070 b3 33 e0 3d 25 1f 59 bc 9d 12 29 be 9b 87 0e 3e
       0.10947361 -0.013252054 -0.16511007 0.13918917
000080 c4 fb 22 bc 77 dd 1c be 23 a9 90 bd 34 f0 00 be
       -0.009947721 -0.15318857 -0.0706351 -0.1259163
000090 82 5f 05 be 05 f8 78 3d 35 d7 06 3e a9 01 25 3e
       -0.13024715 0.060783405 0.13168032 0.16113915
0000a0 4a 71 07 3e 3c 14 46 3e 4a fa 13 3e 82 5c 8e bd
       0.1322681 0.19343656 0.14450946 -0.06951238
0000b0 da 7b 07 3e 4e 65 88 3e f3 c9 4c 3e 38 ec 0b 3e
       0.1323084 0.2663979 0.19998913 0.13664329
0000c0 7d d4 39 3d e2 28 2d 3e 40 ef 57 bc f3 f7 f6 bd
       0.04536866 0.16910127 -0.0131796 -0.12059011
0000d0 74 f5 e2 3c 11 06 32 bd
       0.027704932 -0.043462817

model.2.weight f4 [26, 54]
000000 87 11 29 bc 6f ad cf bd 4d dc f7 3d b5 a0 6a 3d
       -0.01031912 -0.10140502 0.12102566 0.05728217
000010 db b7 31 3e 62 57 26 be 02 8b e9 3d 60 71 3e bd
       0.17355292 -0.16244271 0.11403467 -0.04649484
000020 01 78 b5 bd 6d b9 f8 3b 4f cf 98 bd 66 ca 14 3e
       -0.088607796 0.007590464 -0.07461416 0.14530334
000030 cd f1 1f 3e 8c 27 39 be ad 52 fb 3b fb aa 23 3d
       0.15619583 -0.18081492 0.007669768 0.03995798
000040 76 fa 2b 3e 68 18 00 3e 64 80 a1 3d 4a 70 a1 3c
       0.16794762 0.1250931 0.07885817 0.019706864
000050 86 ae 45 3e b0 6d 31 3e 61 2d 73 3d 7c db 84 3c
       0.19304857 0.17326999 0.05936945 0.01621794
000060 5a 5a 35 3e ee c0 24 3d 38 bf 56 3e f1 a1 5a 3d
       0.17710248 0.040223055 0.20971382 0.053377096
000070 6e 8f d8 3d 2d c8 3a 3e f9 5e a1 3d b7 be 36 3e
       0.10574232 0.18240424 0.07879443 0.1784619
000080 5d 1e 88 3d 03 f8 59 3e 57 90 ec 3d 9a 06 44 bd
       0.06646416 0.21286015 0.11550968 -0.04785786
000090 6e 73 2e bd 84 7c 4e 3e 51 ee fe bc 55 47 57 3d
       -0.04259055 0.20164686 -0.031119497 0.052558262
0000a0 f3 17 90 3d 42 6a 35 bd 71 af d7 3d 1f 7f 51 3d
       0.07035818 -0.04429079 0.1053151 0.051146623
0000b0 6f 07 1b 3e a7 ba 5d 3e f4 c9 fa 3c cb 7e e6 3c
       0.15139554 0.21653233 0.030613877 0.028136631
0000c0 24 ff 29 3e 22 0e 23 3c fa 77 fc 3d 7e 18 19 3e
       0.16601235 0.0099521 0.12327571 0.1495075
0000d0 7a 4f aa bd 06 2d e0 3d 27 6a 92 3c 1e 5d ed bd
       -0.0831594 0.109460875 0.017872883 -0.11590026
0000e0 b0 e0 36 3d c6 48 8f 3d 8b 25 bd 3c 95 1d ad bd
       0.044647872 0.06996302 0.023089191 -0.08452908
0000f0 b0 3a 0e 3d 22 67 9c 3d 70 c8 d3 bd c1 29 31 bd
       0.034723938 0.076368585 -0.10340965 -0.04325271
000100 fa 13 be bd 46 92 9f 3d 62 6d 12 bd bc 5e e7 bc
       -0.09281154 0.07791571 -0.035748847 -0.028243415
000110 7a 5a b6 3d 9a ff cd bd 28 d5 bd bd 85 55 9d 3d
       0.08903976 -0.10058518 -0.09269172 0.07682327
000120 97 66 ff bd 71 fd d0 bd 81 c2 b2 3d a1 42 f0 bd
       -0.12470739 -0.1020459 0.08728505 -0.117314585
000130 4c ef 0a 3d 2e 16 b8 bd 11 51 54 bc 38 68 0c 3d
       0.033919618 -0.089886054 -0.012958781 0.03427908
000140 13 62 65 3d 7b e7 b0 3d 0c 24 aa bd d1 67 ed bc
       0.056001734 0.086379014 -0.08307657 -0.028980168
000150 f2 39 10 bd b1 c7 e0 bd 39 cb 9a 3d 9e 56 6c bd
       -0.03521151 -0.10975588 0.07558293 -0.057699792
000160 d8 17 ae 3d e0 03 06 bd e8 f0 c7 3d 28 f1 a1 bd
       0.085006416 -0.03271854 0.09762746 -0.07907325
000170 50 5c 4c 3c 20 b6 fd 3b 11 a4 ad bd b0 7f 21 bd
       0.012473181 0.0077426583 -0.08478559 -0.039428413
000180 a2 20 d3 bd 80 a4 92 3b c7 60 3e bd 5a ba 40 bd
       -0.103089586 0.0044751763 -0.046479013 -0.04705272
000190 a3 75 c5 3d 43 1d 86 bd 93 3b 03 be 1e 53 3c bd
       0.09641578 -0.0654855 -0.12815695 -0.045977704
0001a0 be 72 0e 39 1c c6 88 bd 55 ed 9a bd e3 fc ff bd
       0.0001358492 -0.06678411 -0.07564799 -0.12499406
0001b0 88 8b 6b 3d fb 3c 1f be c9 e6 89 bd 2b 58 64 bd
       0.057506114 -0.15550606 -0.06733472 -0.055748146
0001c0 82 15 eb 3c 77 fe b1 bd f4 0c bb 3d 9f 13 2f bd
       0.02869678 -0.086911134 0.0913333 -0.04274332
0001d0 5d 8e a9 3c 2c ce 0c be 46 97 8d 3c bf 71 74 3c
       0.020697767 -0.13750523 0.017284047 0.014919697
0001e0 f2 48 cc bc 06 3a 8c bd 2b bf 2d 3e d0 e1 74 3d
       -0.024937127 -0.068470046 0.16967456 0.059785664
0001f0 85 9b 22 be d3 6c 92 3c 8e 91 cd bb c8 f5 8a 3c
       -0.15879638 0.017874157 -0.006273455 0.0169629
000200 5f 2c 02 3c 6b fb 18 be 82 69 0f be 9a 2a 33 bd
       0.007945149 -0.14939658 -0.14005092 -0.0437418
000210 dc d3 8d bd 74 8b cd 3c 2c 38 c7 bd d8 b6 aa 3d
       -0.069251746 0.02509091 -0.09727511 0.08335656
000220 11 08 23 be 13 95 c4 bd 4a 0f 20 be 6d 62 b0 bd
       -0.15921046 -0.09598746 -0.15630832 -0.08612523
000230 f1 ab e0 3c e5 a4 e4 bc ea ac 72 3c ce 55 1e bd
       0.027425738 -0.02791066 0.014811734 -0.03865605
000240 70 fc cd bd 4a a6 19 be fb fd f1 bc 3f 61 5b 3d
       -0.10057914 -0.1500484 -0.029540053 0.053559538
000250 40 cf 1d 3d 3e c5 cf bd 7b 80 93 bd 1d 51 8a bc
       0.038527727 -0.10145043 -0.0720224 -0.016884381
000260 60 b8 83 3c be 68 94 bd ea ce eb bd 0c c4 d3 bb
       0.016079128 -0.072465405 -0.11514075 -0.0064625796
000270 a8 26 7e 3d 5f ee 1f 3d a0 5f dd bd 39 17 58 bd
       0.062048584 0.039045688 -0.10809255 -0.05275652
000280 0c 27 31 bd d0 48 09 3b d4 4f 02 3e ef a1 74 3c
       -0.04325013 0.002094794 0.12725765 0.014931186
000290 bc df e1 3c 43 c3 9c 3d 73 55 e1 3d 5e 50 a7 3d
       0.027572505 0.07654431 0.11002626 0.08169626
0002a0 51 23 d0 bd 1f db 0a bb 59 42 74 bd aa dc 85 bd
       -0.10162986 -0.0021187735 -0.059633587 -0.06536229
0002b0 d0 e4 ae bd a4 c5 d6 3d 46 49 c8 3d f4 00 3c bc
       -0.08539736 0.10486916 0.09779601 -0.011474837
0002c0 84 a0 c2 bc 3e ba ee 3d f4 c6 e1 bd f5 e0 cf 3b
       -0.02375818 0.11656617 -0.110242754 0.0063439556
0002d0 82 aa 6c 3d fd 06 eb 3d 62 38 86 3d 06 c5 94 3c
       0.057779796 0.11475942 0.06553723 0.018160354
0002e0 db e1 5f 3d 35 21 e0 3d a9 25 32 3d 4f a0 16 be
       0.054658752 0.10943834 0.043492947 -0.1470959
0002f0 9a d2 d4 3d 1f 96 80 bd 3d ba e8 3c b4 5a c1 bd
       0.103917316 -0.06278633 0.028409118 -0.094411284
000300 3c 61 2a 3e 0d bc 0a 3e 83 7c a2 bd 6e dd 3e bd
       0.16638654 0.13548298 -0.07933905 -0.04659789
000310 0a d1 c9 bd 96 de d2 bd 2d 3c a2 bd 2b 8b b9 3c
       -0.09854324 -0.10296361 -0.07921634 0.022649368
000320 ef a7 44 3d 3a f8 05 be 35 34 ea bd 0c 07 53 bc
       0.048011716 -0.13082972 -0.11435739 -0.012880098
000330 85 63 19 3d 6f 30 62 3d 1f 21 0c 3e 8c 25 e5 bd
       0.037448425 0.05522197 0.1368451 -0.11188802
000340 da 5e 4d 3d 67 85 2b 3d cf 6e 2a bd 42 27 02 3e
       0.050139286 0.04187527 -0.04160958 0.12710288
000350 ac 1a 83 3c f6 e2 85 bd a0 68 70 3d 66 e5 00 3d
       0.01600393 -0.0653743 0.05869353 0.03146877
000360 85 85 ee 3d 82 6f 49 3d 9e c4 4a 3e 78 32 81 ba
       0.116465606 0.049178608 0.19801566 -0.000985696
000370 65 d8 3c 3e 62 a6 8c 3d b9 72 92 3d b4 3f f6 3d
       0.18441923 0.068676725 0.07150788 0.12023869
000380 f1 1a 2b 3e 1d 00 f5 3d d7 16 ff bc 4f a9 53 3e
       0.16709496 0.11962912 -0.03113882 0.20670055
000390 0c f3 3c 3e 29 60 cf bd 5e 3f 2c bd 77 c9 06 3e
       0.1845209 -0.10125763 -0.04205262 0.1316279
0003a0 42 fd 15 bd c4 b1 a1 bc 97 b0 77 bc 41 7f 64 3e
       -0.03661848 -0.019738086 -0.015117786 0.22314169
0003b0 fa 49 87 bc 42 1a 4d 3b 6c 45 10 bd f3 ef fc bc
       -0.016514767 0.0031296168 -0.035222456 -0.030876135
0003c0 1b a3 c8 3d 89 51 a3 bc cf 40 4c 3e a4 fd f2 3d
       0.09796735 -0.01993634 0.19946598 0.11864784
0003d0 53 5a a4 3d 2a 12 2e 3e 5f 3b 10 3e ec af 8c 3d
       0.080250405 0.16999117 0.14085148 0.06869492
0003e0 08 7e a7 3d 4c 19 24 bd 4b ca 31 bd a7 3f 54 3d
       0.081783354 -0.040063187 -0.043405812 0.051818516
0003f0 b3 22 ad 3c 1d 57 30 3e 47 3a 20 3e e1 1b 9b 3c
       0.02113471 0.17220731 0.15647231 0.018934192

model.2.bias f4 [26]
000000 cf ab 30 3e ca 3f 0a be 8e 72 c6 bd 18 b7 f3 bc
       0.1725304 -0.13500896 -0.09689818 -0.029750392
000010 d2 79 c6 3d c9 45 15 3e 06 7b 09 bd 4d f7 d7 3d
       0.09691204 0.14577402 -0.03356459 0.10545216
000020 0c f8 18 3d 62 c9 cc bc 83 bc fb bd 39 6e 29 3d
       0.03734593 -0.02499837 -0.12291815 0.041364882
000030 ba ed 80 3d 04 ad 45 3e 9e 89 48 bd 24 ac a1 3d
       0.06295343 0.19304281 -0.048959367 0.07894161
000040 5a 67 03 bd ba db e5 3d 00 67 1a be da 48 36 3e
       -0.032080986 0.1122355 -0.15078354 0.17801228
000050 f1 91 4e 3d 89 30 d2 bd 39 e3 e6 bd e2 ff 57 bd
       0.05043215 -0.102631636 -0.11273808 -0.052734263
000060 45 db 35 3e f8 96 40 3b
       0.17759426 0.002938686

model.4.weight f4 [24, 26]
000000 89 5f 25 3e 6b 0b 1a be 1a 94 f3 3c 9c 76 e3 bd
       0.16149725 -0.15043418 0.029733706 -0.11106607
000010 c8 e9 40 3e d4 27 33 3e 25 c4 da 3d bf 57 55 bd
       0.1883918 0.17495662 0.10681943 -0.052085634
000020 2e e0 d0 3c 19 d0 a6 bd f5 2d 46 be ec 43 48 3d
       0.025497522 -0.0814516 -0.19353469 0.0488929
000030 f2 65 e9 3c 4b bf 5d 3e cf e5 b4 3c 69 97 4b 3e
       0.028490994 0.21655004 0.022082238 0.19881977
000040 72 ff 95 bd 8f 1c bf 3d 1f e2 3f 3e ef b2 8c 3d
       -0.07324113 0.09331619 0.18738602 0.068700664
000050 94 81 47 bd b5 66 b8 bd 2a 11 09 be f8 b9 e9 bc
       -0.04870756 -0.09003965 -0.13385454 -0.02853106
000060 d3 07 84 bd cf 29 81 3e ef 3e 0f bd 71 40 1f 3e
       -0.06446805 0.2522721 -0.034972128 0.15551926
000070 a9 3e e0 bd b4 d0 c8 3d 00 e6 04 be f5 4f 48 be
       -0.109494515 0.09805432 -0.12978363 -0.19561751
000080 4b d7 b8 3c 43 84 0b be 96 9c 62 bd 6b d4 48 bd
       0.022563597 -0.13624673 -0.055325113 -0.049030703
000090 4c 82 47 bd a2 13 eb 3d d2 5a fa 3b f6 23 84 bd
       -0.048708245 0.11478354 0.007640221 -0.064521715
0000a0 49 41 93 3d fe ba da 3c c2 83 9e bd 70 65 ca bd
       0.071901865 0.026700493 -0.077399746 -0.09882629
0000b0 5b f8 20 3e 75 a9 4d bd ff 56 48 bd d9 d5 1d 3e
       0.1571974 -0.050210435 -0.04891109 0.15413608
0000c0 61 27 2c be db b7 a9 3c ec 21 27 be df ed 6f be
       -0.16811897 0.020717552 -0.16321534 -0.23430584
0000d0 7a 5f 1b be 0e 92 12 be 3f 4e 37 be 14 29 0a 3d
       -0.1517314 -0.14313528 -0.17900942 0.03373058
0000e0 6e 38 01 be 09 d5 04 3e d5 e9 00 3e 9f bd 02 be
       -0.12619182 0.12971891 0.125892 -0.12767647
0000f0 17 40 46 be ca 88 96 3d 69 21 2a 3e e8 90 01 be
       -0.19360386 0.07350309 0.16614307 -0.12652934
000100 2a f6 39 be 87 64 94 bd b2 b7 d9 3d e4 ab 10 3d
       -0.1816031 -0.072457366 0.1063074 0.035320178
000110 e4 6e 9c bd 98 71 f2 3c b0 e4 27 3c 70 75 9e bc
       -0.07638338 0.029595181 0.010247394 -0.019343108
000120 51 0c 31 3e 4e b7 12 be 4a 28 89 3d 50 96 00 3c
       0.17289855 -0.14327738 0.06697138 0.007848337
000130 0a 2d b9 3d 1e 38 00 be 19 8a ca bd ae 27 e8 3d
       0.09041794 -0.12521407 -0.09889621 0.11335693
000140 ce 9d e7 bd 4d be 14 3d a8 e7 39 be 1f 93 1e bb
       -0.11309396 0.036314297 -0.18154776 -0.0024196578
000150 7f 2b 76 be 8e 7c 83 3c ff c3 a0 3d fc 5a e2 bc
       -0.2404003 0.016050603 0.07849883 -0.027631275
000160 94 3e 71 3d 63 bd cb 3d 80 47 2e be a6 82 72 bd
       0.05889757 0.09948232 -0.17019463 -0.059206627
000170 74 fd 25 3e cd d7 5c be d2 c1 aa 3d 3e 40 9e 3d
       0.16209966 -0.21566696 0.083377495 0.07727097
000180 29 03 2c 3d a9 8a c0 3d b2 82 52 3d b3 2f e3 bd
       0.0419952 0.09401447 0.051394172 -0.11093082
000190 c4 13 f3 bd 97 94 6c be 0c 0e a2 bd 75 93 32 bd
       -0.11869004 -0.23103558 -0.079128355 -0.043597657
0001a0 75 de 1d 3e 7d 90 e2 bc 72 9a ec 3d 9e 7f 1e bd
       0.15416892 -0.027656788 0.115528956 -0.038695924
0001b0 16 91 e8 bc fb 8d c2 bd ca e6 4b 3e 87 e8 86 3e
       -0.028389495 -0.09499737 0.19912258 0.2634928
0001c0 f1 e3 14 be 6a 98 f0 3d ae 73 d6 3d e8 c7 05 be
       -0.14540078 0.11747821 0.10471283 -0.1306454
0001d0 36 eb 46 bc a7 4f 24 3a b2 04 7c bd 4d 84 87 3d
       -0.01214104 0.00062679726 -0.061527915 0.06617031
0001e0 ee fd 7a 3d cc a2 60 3e 69 87 2f 3e 06 f1 60 3e
       0.061277322 0.21937102 0.17141499 0.21966943
0001f0 86 ff 62 3e 9f 6a a7 3d 59 00 a0 bd 4e 9e ec bd
       0.22167787 0.08174633 -0.07812566 -0.11553632
000200 9e b9 2b 3e fd 07 82 bd 76 fa 92 bd 20 eb cc bb
       0.16770026 -0.0634918 -0.07176678 -0.006253615
000210 32 e4 cd 3d 4e 2f fb 3d 08 bb 09 be e8 b5 8a bd
       0.100532904 0.12264882 -0.13450253 -0.06772977
000220 51 bf 23 3e 8a 68 86 3d c8 21 1b bd e1 2c b3 bd
       0.1599095 0.06562908 -0.037874013 -0.08748794
000230 c2 bd bd 3d d8 86 f2 bc 29 9b 0a 3e 48 86 21 3d
       0.09264709 -0.029605314 0.13535751 0.0394347
000240 90 17 2a bd 9e d2 bc bd a4 2d 2a be 08 3f a0 3c
       -0.041526377 -0.092198595 -0.16618973 0.019561306
000250 29 cd a1 bd 70 52 b4 bc 70 8b 1c bc 79 6a 29 3e
       -0.07900459 -0.022011966 -0.009554729 0.16544522
000260 b8 49 8c bd c0 cd 37 3b b8 d0 e5 3c a8 1f 8b bc
       -0.06849998 0.002804622 0.028053626 -0.016982868
000270 0e b3 5a be 78 6d fd bc 90 ad 1e 3d 6e e3 25 3d
       -0.21357366 -0.030935988 0.03873974 0.040500097
000280 48 1e 90 bd 06 ce 83 3d 98 53 14 be 36 49 39 be
       -0.07037026 0.0643578 -0.14485013 -0.18094334
000290 e8 15 d1 bd d7 97 f2 bd d8 23 02 bd be 9c 84 bd
       -0.102092564 -0.118453674 -0.031772465 -0.06475209
0002a0 2f 01 d1 3d e8 b8 50 be 16 ff a7 3d d1 26 31 be
       0.10205304 -0.20383036 0.08202951 -0.17299964
0002b0 f0 c3 4e be d8 9d c2 3d 0c ae 15 3e 52 6d 1b 3d
       -0.20191932 0.095027626 0.14617175 0.037946053
0002c0 0d f9 12 3e b6 42 b9 bb 2b a5 00 3e 66 31 1a be
       0.14352818 -0.0056537045 0.12563007 -0.15057907
0002d0 5c bc 1b be 23 27 18 3d 24 81 48 be d8 04 2a bd
       -0.15208572 0.0371467 -0.19580513 -0.041508526
0002e0 93 11 15 3e 73 e0 35 3e 18 b8 ad 3c 54 51 13 3d
       0.14557485 0.17761402 0.021205947 0.035966232
0002f0 74 20 7b 3d 3f 9a 2d be be 4c 15 be af e6 b7 bd
       0.061310247 -0.16953371 -0.14580056 -0.08979546
000300 17 0b 2d 3e 88 cc 25 3d 31 10 be bd 86 61 35 be
       0.16898762 0.04047826 -0.09280432 -0.17712983
000310 70 92 08 3d a5 72 2d 3e 36 dd f7 3d f2 0d ed bd
       0.03334278 0.16938265 0.121027395 -0.115749255
000320 60 fd c3 3c cc b9 6b 3d 60 39 01 be 54 2c 3e 3d
       0.02392453 0.057550237 -0.12619543 0.046428993
000330 28 d7 8f bc 1c 86 89 bd 6c 0a 19 3d 91 23 df bd
       -0.01755865 -0.067150325 0.037363455 -0.10895456
000340 e7 b5 14 3e 3d b7 09 be 6d b8 7b bd 06 d2 82 3e
       0.14522515 -0.13448806 -0.06145518 0.2555086
000350 90 7d cc 3c 5a ee 34 3d 5f 57 a0 bd 14 f5 8e bd
       0.024962217 0.044172622 -0.07829165 -0.06980339
000360 2c 46 c7 bc db 14 87 3e bc 14 09 bd db 97 58 3e
       -0.024325453 0.263831 -0.03346704 0.21151678
000370 2e e9 0c bd ca c3 26 3e 67 42 e7 bc 51 c7 3e bd
       -0.034402065 0.16285625 -0.028229905 -0.0465768
000380 45 d7 9f 3c c8 43 8b 3d 02 37 b4 bd 0a 8f 84 3e
       0.019511828 0.068000376 -0.087995544 0.2589038
000390 d4 20 53 3e d4 1a 4a 3c bc 25 d7 3d 40 f7 54 bd
       0.20617992 0.012335498 0.10505244 -0.05199361
0003a0 8d 22 19 3d 18 f6 67 3e 79 0e fc 3d 0f be 28 3e
       0.037386466 0.22652471 0.12307448 0.16478752
0003b0 71 6a 36 3d 79 f6 71 3e d3 79 63 3e 3b f7 ef 3d
       0.044535104 0.23629178 0.22214441 0.11717077
0003c0 bc e5 de 3c df 64 3a bd 31 07 db bc 33 4f a7 bc
       0.027209155 -0.045506354 -0.026736828 -0.020423507
0003d0 7c 1d 34 bd 2a 41 5e 3e 49 e3 01 be 04 54 2a 3e
       -0.04397343 0.21704546 -0.12684359 0.16633612
0003e0 6c db 59 be 42 d2 eb 3c 81 95 18 3c 08 89 61 3e
       -0.21275109 0.028786782 0.009312988 0.2202493
0003f0 b0 b6 0b be 4a 4a c8 3d d4 b4 bb 3c 0d 31 15 bd
       -0.13643909 0.097797945 0.022913374 -0.03642373

model.4.bias f4 [24]
000000 83 77 03 3e fa da f0 3c d0 0a 07 be ad 98 05 bc
       0.12838559 0.029401291 -0.13187718 -0.0081540765
000010 ce 45 22 3e 64 7e 28 bd 17 22 2f 3b 54 3f 2c be
       0.15846941 -0.04113616 0.00267232 -0.16821033
000020 51 5e 56 3e 50 13 8c 3e 3e 2f 3f be 8d b4 d2 3d
       0.20934416 0.27358484 -0.18670365 0.102883436
000030 00 34 d2 bd c9 69 38 be 32 2f 44 3d fb 86 57 bd
       -0.102638245 -0.18009104 0.04789657 -0.05261896
000040 1b 54 54 3d b7 cd 37 be 16 30 93 bd 36 03 1a be
       0.05183802 -0.17949568 -0.07186906 -0.15040287
000050 12 5f 93 bd 29 8a e3 bd eb 81 f6 bd 66 67 a3 bd
       -0.071958676 -0.11110336 -0.12036499 -0.07978706

model.6.weight f4 [1, 24]
000000 f4 8c 2f be 3a 59 b2 3d e8 4c 77 3d 58 1b 74 3d
       -0.17143613 0.08708425 0.060376078 0.05959639
000010 e7 72 32 be b0 90 7e 3c f8 c9 1c 3d 10 93 82 3c
       -0.17426644 0.015537426 0.03827855 0.015939265
000020 41 a9 42 be 77 9f 71 be b5 51 f9 3d 91 c9 15 be
       -0.19009878 -0.23595987 0.121737875 -0.14627673
000030 ca 0a 04 be 1e 15 9e bd 4f 69 04 3e 6c 88 ee bc
       -0.1289474 -0.077188715 0.12930797 -0.029117785
000040 e9 ef 64 be b0 7d b3 bc 78 eb 30 be ce f4 b4 bd
       -0.22357143 -0.021910518 -0.17277324 -0.08835755
000050 68 8c 1e 3e 14 9d a1 3c 9c e8 29 be 63 8d e6 3d
       0.15483248 0.019728221 -0.1659264 0.11257436
