models/best_model_state_dict.pth (torch, 203708 bytes, 9 tensors)

model.0.weight f4 [256, 25]
2.9579074 2.7950237 2.8088636 2.9502149 2.7831306 3.1405225 2.9138544 2.9716437
2.837164 2.819513 3.015992 2.8712692 3.0162268 2.9997535 3.1097853 3.0110419
2.8903995 3.0597692 3.1799107 3.0846028 -2.9418495 3.0384588 1.5135494 2.398802
-1.8990936 -3.1131988 -3.0858374 -2.9231977 -2.834283 -2.962392 -3.1555758 -3.011293
-2.9341912 -2.8037276 -2.8584366 -2.7938223 -2.8246365 -3.1025913 -3.1541867 2.9027793
-2.8100867 -3.037047 -2.8130276 -2.9763052 -3.0311916 -2.5981603 -3.0768607 -1.2071022
-2.629448 -2.5785072 2.8131268 2.9415581 3.0876858 3.132482 3.165767 2.9954617
2.9345548 2.8998017 2.7344825 3.0388958 2.911447 2.9628077 2.8286893 2.8658102
3.1128154 2.967551 2.9843335 -2.6062331 3.0848606 3.0613918 -2.7880828 3.1391776
-2.7898214 2.6958957 1.00734 3.0742843 2.9994187 2.7925014 3.1653826 3.1514924
-2.9628499 2.8443038 2.9221892 3.0801215 -2.6702049 -2.8520632 -2.899933 -2.9950044
2.788713 2.9800937 2.9268572 3.0442777 2.9278774 -3.0930307 2.909071 -3.0081317
-2.679591 2.4428227 -2.906706 1.4879154 -3.1282873 -3.1525235 -3.08747 -2.941931
-3.120885 -2.8408105 -2.7916584 -2.9905372 -2.8427196 -2.7992775 -3.1679127 -2.8864663
-3.1086028 -3.1442466 -3.0783706 -2.8927116 -2.8706965 -3.0568917 -2.8704917 -2.944928
3.0667129 2.9643435 -2.76514 -2.8350763 2.348264 2.9876273 2.97609 2.7976108
2.9606817 3.1202602 2.8758242 3.1227446 3.0245843 3.163708 2.3614352 2.7739844
-0.14673905 2.9719021 3.0609505 3.0806248 -0.17802499 2.9151819 -2.0266142 -2.9242365
2.9944856 2.5086317 -2.836895 -1.6841274 -2.3194463 -2.3305593 -3.0787156 -3.004545
-2.8591266 -3.1354485 -2.9464056 -3.0503142 -2.947904 -3.1165059 -2.8962002 -2.4868855
-2.795169 -2.8792613 2.8673537 -2.8580801 -2.9215207 -3.0966632 -3.14787 -3.1355984
-2.8778265 -2.965728 2.7575421 2.8631475 -2.706879 -2.8834562 2.7146015 3.054404
3.132908 2.828042 2.9242568 2.9794495 2.8165808 2.9388018 3.1043727 3.0388606
3.0350251 2.8093941 3.1584272 2.950327 2.7556252 3.0742462 2.8797061 3.1195357
3.0925493 3.020628 3.0050664 -2.882413 -2.955875 -2.7501073 2.494413 -2.54837
3.067882 3.1147344 3.139522 3.1740184 2.8214676 -2.9254456 2.906898 3.094232
3.0960343 -2.7045395 2.733793 2.9121408 2.801402 3.103584 -2.9099326 2.9347591
2.836431 2.9455793 2.8981934 2.8513424 -3.048124 -2.873265 2.4983106 1.8353161
-2.3754973 -2.8713536 -2.9580855 -2.80155 -2.928305 -3.1571898 -2.8770258 -2.8185542
-3.1218972 -2.8238513 1.8691509 -2.9414527 -3.05164 -3.1189315 -3.1405022 -2.8187058
-3.0891523 -3.040242 -3.0999405 -2.865342 -2.8640327 -2.8598065 2.8933764 -2.8537076
1.5898088 0.88185716 -2.8260992 -3.0419402 -3.060971 -3.1807497 -2.9107857 -2.9607866
00000000: 5b4e 3d40 abe1 3240 6cc4 3340 52d0 3c40
00000010: d01e 3240 52fe 4840 977c 3a40 692f 3e40
00000020: 1894 3540 e772 3440 0306 4140 e0c2 3740
00000030: dc09 4140 f6fb 3f40 b906 4740 e9b4 4040
00000040: 4efc 3840 42d3 4340 a883 4b40 226a 4540
00000050: 4347 3cc0 1c76 4240 fdbb c13f f985 1940
00000060: 8015 f3bf a63e 47c0 5c7e 45c0 ac15 3bc0
00000070: e564 35c0 d597 3dc0 f4f4 49c0 06b9 40c0
00000080: cac9 3bc0 4670 33c0 a0f0 36c0 fccd 32c0
00000090: d8c6 34c0 db90 46c0 32de 49c0 23c7 3940
000000a0: 76d8 33c0 fa5e 42c0 a508 34c0 c97b 3ec0
000000b0: 0bff 41c0 4248 26c0 49eb 44c0 5382 9abf
000000c0: e048 28c0 4306 25c0 450a 3440 7d42 3c40
000000d0: a59c 4540 967a 4840 ed9b 4a40 a5b5 3f40
000000e0: bfcf 3b40 5a96 3940 c301 2f40 457d 4240
000000f0: 2655 3a40 a49e 3d40 3f09 3540 6f69 3740
00000100: 5e38 4740 5bec 3d40 52ff 3e40 86cc 26c0
00000110: 5b6e 4540 d8ed 4340 f36f 32c0 49e8 4840
00000120: 6f8c 32c0 8e89 2c40 84f0 803f 13c1 4440
00000130: 7af6 3f40 58b8 3240 a195 4a40 0db2 4940
00000140: 559f 3dc0 1309 3640 2605 3b40 b620 4540
00000150: a3e4 2ac0 3488 36c0 8198 39c0 27ae 3fc0
00000160: 467a 3240 dbb9 3e40 a151 3b40 72d5 4240
00000170: 5862 3b40 37f4 45c0 382e 3a40 3b85 40c0
00000180: 6b7e 2bc0 3557 1c40 7907 3ac0 0374 be3f
00000190: dc35 48c0 f2c2 49c0 1c99 45c0 9948 3cc0
000001a0: 94bc 47c0 d7cf 35c0 88aa 32c0 f664 3fc0
000001b0: 1eef 35c0 5d27 33c0 15bf 4ac0 ddbb 38c0
000001c0: 59f3 46c0 563b 49c0 0604 45c0 3022 39c0
000001d0: 7eb9 37c0 1da4 43c0 23b6 37c0 b379 3cc0
000001e0: 0645 4440 ceb7 3d40 0ef8 30c0 e471 35c0
000001f0: f549 1640 4935 3f40 4278 3e40 0e0c 3340
00000200: cf7b 3d40 58b2 4740 810d 3840 0cdb 4740
00000210: ca92 4140 317a 4a40 c121 1740 f688 3140
00000220: c342 16be a533 3e40 9de6 4340 f528 4540
00000230: 2f4c 36be 5792 3a40 0cb4 01c0 b126 3bc0
00000240: a7a5 3f40 6c8d 2040 b08f 35c0 7d91 d7bf
00000250: cf71 14c0 e227 15c0 ad09 45c0 774a 40c0
00000260: eefb 36c0 30ab 48c0 e991 3cc0 5938 43c0
00000270: 76aa 3cc0 d574 47c0 585b 39c0 2229 1fc0
00000280: 0de4 32c0 d145 38c0 b982 3740 c9ea 36c0
00000290: 32fa 3ac0 bb2f 46c0 b476 49c0 a5ad 48c0
000002a0: 4f2e 38c0 7dce 3dc0 927b 3040 cf3d 3740
000002b0: 813d 2dc0 8c8a 38c0 08bc 2d40 5b7b 4340
000002c0: 9181 4840 a4fe 3440 0627 3b40 4daf 3e40
000002d0: dc42 3440 5415 3c40 0bae 4640 b17c 4240
000002e0: da3d 4240 1dcd 3340 ac23 4a40 28d2 3c40
000002f0: 2a5c 3040 73c0 4440 1b4d 3840 79a6 4740
00000300: 54ec 4540 f851 4140 0253 4040 7479 38c0
00000310: 0e2d 3dc0 c201 30c0 76a4 1f40 7e18 23c0
00000320: 2e58 4440 cf57 4740 eeed 4840 1e23 4b40
00000330: ed92 3440 803a 3bc0 9e0a 3a40 e607 4640
00000340: 6d25 4640 2d17 2dc0 77f6 2e40 8460 3a40
00000350: 2c4a 3340 1fa1 4640 563c 3ac0 18d3 3b40
00000360: 1688 3540 5f84 3c40 007c 3940 657c 3640
00000370: 7714 43c0 93e3 37c0 52e4 1f40 a3eb ea3f
00000380: 2608 18c0 42c4 37c0 4651 3dc0 984c 33c0
00000390: 5969 3bc0 660f 4ac0 3121 38c0 3163 34c0
000003a0: 2acd 47c0 fbb9 34c0 5640 ef3f c340 3cc0
000003b0: 124e 43c0 939c 47c0 fdfd 48c0 ad65 34c0
000003c0: acb4 45c0 5393 42c0 6d65 46c0 c361 37c0
000003d0: 504c 37c0 1207 37c0 142d 3940 25a3 36c0
000003e0: db7e cb3f 64c1 613f cfde 34c0 26af 42c0
000003f0: f3e6 43c0 6791 4bc0 504a 3ac0 877d 3dc0

model.0.bias f4 [256]
3.1166 -3.0210264 2.8109117 3.1476507 -2.818088 2.804418 -2.8569627 2.9204094
3.156596 -3.1578143 -3.0360398 3.0353348 -3.1791363 2.906384 2.8786893 -2.9801178
3.1773722 3.1018777 2.922511 3.1028256 -3.0711112 -2.8257096 3.0657887 3.1494865
2.8740647 -2.844971 3.163156 3.1652272 3.1509123 -2.8122602 3.0709333 -2.868534
2.9535291 2.7917433 3.043997 2.8049142 -3.048869 -3.0647974 3.100494 -2.8668067
3.1591256 2.9014919 2.8338084 -3.027349 2.8540144 2.9736185 -3.1585066 -3.054803
-3.1135585 -3.0449586 2.9243283 2.948562 3.1322691 3.1020594 2.9611614 -3.0425203
-2.9913292 2.9814408 -2.9191163 2.9790397 3.0876527 -2.9813652 -2.826005 2.8940375
-3.117786 -2.8316748 2.9142032 2.9213867 -3.0460076 -2.7961495 -3.06452 3.1308055
2.8050747 -2.8960307 -2.9021192 -2.8645105 2.8111563 -3.0646703 -2.9241087 2.9899936
3.1783745 -2.955354 2.7951188 -2.794435 3.0975482 3.001188 3.18221 -3.054826
3.0530114 -2.787013 -3.012115 -2.9357722 3.060423 2.80687 3.1262598 2.096414
3.0338562 2.9418235 -3.0034342 2.9182625 -2.8299198 2.9801013 3.0421643 2.812566
-2.8585138 -3.131226 -2.8478284 2.9465933 -2.8992116 -3.0273695 -2.8374844 3.153822
2.3792083 -2.897641 2.9777696 -3.1530826 -2.9678047 3.1167648 -3.092162 -3.134975
-2.852353 -2.9310293 -2.8284876 -2.8399544 -2.7882907 -3.0058043 -2.959473 -3.130679
-2.7885368 -2.9680033 -2.9286296 2.979547 2.8623571 2.906031 0.91634196 -2.9506023
3.0216277 3.126535 -2.9880157 -2.945121 -2.783303 -3.1208935 -2.8894186 -2.5980554
2.994999 2.9848666 2.844588 3.1523795 -2.7423563 -3.007629 -3.0263686 2.988285
2.9878547 -3.1205394 3.1361072 3.1614368 -3.0542293 -2.9539614 2.8262725 -2.8673072
3.136776 -2.6685157 -2.9478738 -2.846251 2.88796 -2.8006363 -2.8065517 2.8265917
-3.0526648 2.989718 -3.171437 2.7973132 2.7895563 -3.173625 3.1749995 2.8370922
2.8025668 2.8003304 3.1499734 -2.9941342 2.9830894 -3.0921288 3.0875165 -2.88928
3.0342605 2.7816515 2.9409838 -2.9448884 -2.8206334 -3.0623443 -2.8730288 2.9149995
-2.795371 3.1785226 3.0991285 2.8244703 2.954281 -2.834367 -3.001288 3.1343136
-2.8864932 -3.0952113 -3.126865 -2.9040122 -2.9616232 -2.9069831 2.815459 2.822163
-2.798343 3.008329 3.1099117 3.019034 3.0084722 -2.968816 3.1405401 3.0682468
-3.1248188 -2.8216007 3.1189222 -2.9689798 -2.9147062 3.102818 -3.089202 -3.0234604
3.141575 -2.8168542 -3.1699069 2.9064517 -2.8140895 -3.1146944 -3.1310441 -3.1422431
-2.9132833 2.8192363 2.8271303 3.053179 -3.125763 3.1506562 -3.1409225 2.9278038
3.0564513 3.0364425 -3.0869334 2.8554518 3.1711104 3.170409 2.968209 3.0565677
-2.8239737 -2.887788 3.0983205 3.0357513 -2.7858236 -2.7889307 -2.8323228 3.0325642
00000000: 6076 4740 7f58 41c0 fae5 3340 1c73 4940
00000010: 8e5b 34c0 967b 3340 7ad8 36c0 fde7 3a40
00000020: ab05 4a40 a119 4ac0 7a4e 42c0 ed42 4240
00000030: f876 4bc0 3202 3a40 723c 3840 40ba 3ec0
00000040: 115a 4b40 2a85 4640 6c0a 3b40 b294 4640
00000050: 168d 44c0 6dd8 34c0 e235 4440 3091 4940
00000060: adf0 3740 0114 36c0 2671 4a40 1593 4a40
00000070: 8ca8 4940 12fc 33c0 2c8a 4440 1096 37c0
00000080: 9f06 3d40 ecab 3240 d9d0 4240 b783 3340
00000090: ab20 43c0 a425 44c0 7e6e 4640 c379 37c0
000000a0: 1d2f 4a40 0bb2 3940 1e5d 3540 16c0 41c0
000000b0: 2ca8 3640 c44f 3e40 f924 4ac0 e481 43c0
000000c0: 8b44 47c0 9ae0 42c0 3228 3b40 3db5 3c40
000000d0: 1977 4840 2488 4640 ab83 3d40 a7b8 42c0
000000e0: f071 3fc0 edcf 3e40 cdd2 3ac0 96a8 3e40
000000f0: 1a9c 4540 b0ce 3ec0 44dd 34c0 e937 3940
00000100: ce89 47c0 293a 35c0 4e82 3a40 00f8 3a40
00000110: caf1 42c0 1df4 32c0 1821 44c0 1e5f 4840
00000120: 5886 3340 9158 39c0 52bc 39c0 2454 37c0
00000130: fce9 3340 8f23 44c0 9924 3bc0 0e5c 3f40
00000140: 7d6a 4b40 8524 3dc0 3ae3 3240 06d8 32c0
00000150: 3b3e 4640 7713 4040 54a9 4b40 4582 43c0
00000160: 8a64 4340 6c5e 32c0 7ec6 40c0 b1e3 3bc0
00000170: f8dd 4340 c2a3 3340 a414 4840 a62b 0640
00000180: b32a 4240 d646 3c40 4438 40c0 d0c4 3a40
00000190: 681d 35c0 fbb9 3e40 d2b2 4240 1501 3440
000001a0: e4f1 36c0 0266 48c0 d242 36c0 fc94 3c40
000001b0: af8c 39c0 6cc0 41c0 5899 35c0 38d8 4940
000001c0: f344 1840 f372 39c0 c793 3e40 1bcc 49c0
000001d0: 83f0 3dc0 1379 4740 fbe5 45c0 6ea3 48c0
000001e0: f48c 36c0 fc95 3bc0 f105 35c0 d0c1 35c0
000001f0: 5b73 32c0 195f 40c0 0168 3dc0 0b5d 48c0
00000200: 6377 32c0 c4f3 3dc0 ab6e 3bc0 e6b0 3e40
00000210: dc30 3740 69fc 3940 6395 6a3f abd6 3cc0
00000220: 5962 4140 2619 4840 a63b 3fc0 dd7c 3cc0
00000230: a321 32c0 b8bc 47c0 3cec 38c0 8a46 26c0
00000240: 10ae 3f40 0e08 3f40 bb0d 3640 96c0 4940
00000250: c482 2fc0 fe7c 40c0 06b0 41c0 1040 3f40
00000260: 0339 3f40 ebb6 47c0 fbb5 4840 fb54 4a40
00000270: 7e78 43c0 b40d 3dc0 a6e1 3440 f681 37c0
00000280: f0c0 4840 f6c8 2ac0 f7a9 3cc0 fa28 36c0
00000290: 56d4 3840 a03d 33c0 8b9e 33c0 e1e6 3440
000002a0: dc5e 43c0 8a57 3f40 d3f8 4ac0 2e07 3340
000002b0: 1788 3240 ac1c 4bc0 3133 4b40 eb92 3540
000002c0: 415d 3340 9d38 3340 2a99 4940 e59f 3fc0
000002d0: f0ea 3e40 70e5 45c0 df99 4540 f7e9 38c0
000002e0: 5331 4240 9406 3240 1439 3c40 0d79 3cc0
000002f0: 4285 34c0 73fd 43c0 b4df 37c0 5a8f 3a40
00000300: 5ce7 32c0 ea6c 4b40 1f58 4640 1fc4 3440
00000310: f112 3d40 4566 35c0 1a15 40c0 9898 4840
00000320: 4ebc 38c0 f117 46c0 8e1e 48c0 56db 39c0
00000330: 3c8b 3dc0 030c 3ac0 7b30 3440 529e 3440
00000340: 0d18 33c0 7688 4040 cb08 4740 da37 4140
00000350: cf8a 4040 1501 3ec0 9cfe 4840 285e 4440
00000360: 08fd 47c0 1b95 34c0 6c9c 4740 c403 3ec0
00000370: 8c8a 3ac0 9294 4640 7cb5 45c0 6080 41c0
00000380: 910f 4940 5747 34c0 c1df 4ac0 4e03 3a40
00000390: 0b1a 34c0 2757 47c0 0763 48c0 831a 49c0
000003a0: 3c73 3ac0 5e6e 3440 b4ef 3440 4967 4340
000003b0: 800c 48c0 5aa4 4940 e004 49c0 2361 3b40
000003c0: e69c 4340 1355 4240 5190 45c0 b9bf 3640
000003d0: 79f3 4a40 fbe7 4a40 23f7 3d40 ce9e 4340
000003e0: fcbb 34c0 85d1 38c0 e24a 4640 c049 4240
000003f0: ef4a 32c0 d77d 32c0 c744 35c0 8815 4240

model.2.weight f4 [128, 256]
2.9982147 2.9748762 2.9230638 2.961959 2.9489706 2.9810927 3.027502 3.0422955
2.9923942 3.0098977 3.0028906 3.0205534 3.0046067 2.9313755 2.9217448 2.9261532
3.0201385 2.9908967 3.030571 3.012133 2.9753377 3.0203507 3.0008469 2.9870186
2.9497323 3.0309403 3.0355742 2.9814985 2.9801643 2.9693391 3.0356483 2.955379
3.0177119 2.9533186 2.9688861 2.9952502 2.924024 2.9509807 3.0119722 2.953747
2.9572034 2.9338253 2.9447062 2.9242814 2.9500213 2.992637 2.9620612 2.9355917
3.0398762 3.0121548 2.9489834 2.9586802 3.0434082 2.9967635 2.9462376 2.975162
2.9923236 2.971849 2.9922526 2.983128 3.016268 2.9321318 2.9460983 2.953859
2.9894412 2.9287593 2.9906619 2.9933488 3.0225387 3.034697 3.0061562 2.937815
3.0129902 2.927579 2.9885907 2.604128 2.9838662 3.04131 2.9315712 3.0375583
3.0017087 3.0059164 2.9337418 2.9415817 2.979873 2.9798276 2.940953 2.98346
3.0050528 2.9937465 3.0082777 2.9475842 3.0259452 2.9988878 2.9777985 1.9164311
2.9987268 2.9382532 2.961389 3.0170074 3.0287955 3.039624 3.0270367 3.028962
2.9451516 2.9411933 2.9322512 2.9660916 2.9300818 2.9689946 2.9458714 3.0425546
2.8810737 2.9578362 2.9679341 2.9251654 2.9669933 2.9345696 2.961284 2.8594472
2.9285388 2.9284732 3.0124838 2.9747913 2.9469228 2.9653888 2.964435 2.958757
2.9207997 2.9978864 3.029064 2.9696968 2.9769552 2.9841325 -1.9788793 2.9666028
2.9767385 2.9978225 2.94017 2.9504857 3.0157983 2.9389844 3.0242426 0.18026306
2.9236338 2.9523237 2.9581802 2.9649677 -2.8400161 2.9557889 2.9226422 3.0038745
2.9317667 3.0128622 3.039657 3.0344484 2.8062563 2.9266572 3.0331137 2.9463003
2.9909625 3.0347095 2.927379 3.0443318 3.0266414 2.9778092 3.0211713 2.979614
2.981433 2.9453044 3.0106695 2.995655 2.9909723 2.931543 2.9715297 3.0325627
3.0200965 3.0108006 3.0088527 2.9871535 3.0238996 3.015634 2.9424286 2.9730487
3.0238686 3.0192645 2.9790406 2.9356666 3.029518 3.0258324 2.9985893 2.9426181
2.9746327 2.9292097 2.9601023 3.0172687 3.0007381 3.0366704 2.92158 2.994478
2.9601445 2.9733114 2.9514847 2.9839497 2.9314487 3.0372725 2.997287 2.9960964
3.0242279 2.9550374 3.0356898 3.027407 2.9804893 3.016918 3.0371273 3.0281858
2.9335084 2.9222505 2.9258468 3.0193563 2.970811 3.0259705 2.946357 2.9909127
3.016759 3.037255 2.9525597 2.9725447 3.0440054 2.945095 2.9776828 2.9701812
2.926816 2.9734313 2.9557042 2.9748707 3.026546 3.0446758 3.010569 2.926991
3.0229907 2.9270928 3.004937 2.9685576 3.013936 2.9286888 3.0088816 3.0163772
3.0373077 3.0372372 2.9908535 2.9362404 2.997165 2.9384687 3.0213099 3.0076342
00000000: c0e2 3f40 5f64 3e40 7a13 3b40 bc90 3d40
00000010: efbb 3c40 39ca 3e40 98c2 4140 f8b4 4240
00000020: 6383 3f40 2aa2 4040 5c2f 4040 bf50 4140
00000030: 7a4b 4040 a89b 3b40 defd 3a40 1846 3b40
00000040: f349 4140 da6a 3f40 e0f4 4140 c9c6 4040
00000050: ef6b 3e40 6d4d 4140 e00d 4040 502b 3f40
00000060: 6ac8 3c40 edfa 4140 d946 4240 dfd0 3e40
00000070: 03bb 3e40 a709 3e40 1048 4240 ee24 3d40
00000080: 3122 4140 2c03 3d40 3b02 3e40 2eb2 3f40
00000090: 3623 3b40 dedc 3c40 27c4 4040 310a 3d40
000000a0: d242 3d40 cbc3 3b40 1176 3c40 6d27 3b40
000000b0: 26cd 3c40 5d87 3f40 6992 3d40 bce0 3b40
000000c0: 558d 4240 25c7 4040 25bc 3c40 045b 3d40
000000d0: 33c7 4240 f9ca 3f40 288f 3c40 0e69 3e40
000000e0: 3b82 3f40 c632 3e40 1181 3f40 92eb 3e40
000000f0: 890a 4140 0ca8 3b40 e08c 3c40 070c 3d40
00000100: 0153 3f40 cb70 3b40 0167 3f40 0793 3f40
00000110: 4671 4140 7a38 4240 dd64 4040 2905 3c40
00000120: d5d4 4040 745d 3b40 1245 3f40 08aa 2640
00000130: aaf7 3e40 d3a4 4240 dd9e 3b40 5b67 4240
00000140: ff1b 4040 ef60 4040 6dc2 3b40 e042 3c40
00000150: 3db6 3e40 7fb5 3e40 9338 3c40 02f1 3e40
00000160: c952 4040 8b99 3f40 9f87 4040 38a5 3c40
00000170: 16a9 4140 c7ed 3f40 4094 3e40 9d4d f53f
00000180: 24eb 3f40 570c 3c40 6687 3d40 a616 4140
00000190: c9d7 4140 3389 4240 f8ba 4140 83da 4140
000001a0: 5d7d 3c40 833c 3c40 01aa 3b40 72d4 3d40
000001b0: 7686 3b40 0204 3e40 2889 3c40 37b9 4240
000001c0: 8363 3840 304d 3d40 a2f2 3d40 e935 3b40
000001d0: 38e3 3d40 fdcf 3b40 ad85 3d40 2f01 3740
000001e0: 2e6d 3b40 1b6c 3b40 89cc 4040 fb62 3e40
000001f0: 629a 3c40 eec8 3d40 4eb9 3d40 465c 3d40
00000200: 62ee 3a40 5fdd 3f40 2fdc 4140 830f 3e40
00000210: 6f86 3e40 07fc 3e40 eb4b fdbf d2dc 3d40
00000220: e282 3e40 53dc 3f40 bf2b 3c40 c2d4 3c40
00000230: d702 4140 5218 3c40 318d 4140 e196 383e
00000240: d11c 3b40 dff2 3c40 d352 3d40 08c2 3d40
00000250: d3c2 35c0 a52b 3d40 920c 3b40 7b3f 4040
00000260: 11a2 3b40 bcd2 4040 be89 4240 6734 4240
00000270: b499 3340 5a4e 3b40 891e 4240 2f90 3c40
00000280: ee6b 3f40 ae38 4240 2d5a 3b40 55d6 4240
00000290: 7eb4 4140 6d94 3e40 df5a 4140 ffb1 3e40
000002a0: cccf 3e40 de7f 3c40 cfae 4040 d0b8 3f40
000002b0: 176c 3f40 679e 3b40 8b2d 3e40 8215 4240
000002c0: 4349 4140 f5b0 4040 0b91 4040 862d 3f40
000002d0: 9287 4140 2600 4140 c050 3c40 6e46 3e40
000002e0: 1087 4140 a13b 4140 9aa8 3e40 f6e1 3b40
000002f0: 9fe3 4140 3da7 4140 e3e8 3f40 db53 3c40
00000300: 6260 3e40 2c78 3b40 5172 3d40 ee1a 4140
00000310: 180c 4040 cf58 4240 2bfb 3a40 87a5 3f40
00000320: 0273 3d40 bc4a 3e40 20e5 3c40 08f9 3e40
00000330: db9c 3b40 ac62 4240 8dd3 3f40 0bc0 3f40
00000340: f38c 4140 551f 3d40 be48 4240 09c1 4140
00000350: 56c0 3e40 2f15 4140 4b60 4240 cccd 4140
00000360: 9abe 3b40 2706 3b40 1341 3b40 223d 4140
00000370: c421 3e40 80a9 4140 1d91 3c40 1d6b 3f40
00000380: 9412 4140 6362 4240 bdf6 3c40 2c3e 3e40
00000390: fcd0 4240 707c 3c40 5b92 3e40 7317 3e40
000003a0: f450 3b40 b34c 3e40 422a 3d40 4864 3e40
000003b0: eeb2 4140 f8db 4240 2aad 4040 d253 3b40
000003c0: ae78 4140 7d55 3b40 e350 4040 d9fc 3d40
000003d0: 54e4 4040 a36f 3b40 8491 4040 530c 4140
000003e0: 4063 4240 1862 4240 256a 3f40 5deb 3b40
000003f0: 8dd1 3f40 df0f 3c40 245d 4140 147d 4040

model.2.bias f4 [128]
2.9726613 -3.0416791 -2.9820008 -2.9278097 2.9732625 3.0169861 -2.992555 3.027305
-2.9432619 -2.9606512 -3.0228374 3.0193734 3.0096352 -2.992817 -0.017659381 2.9707506
3.018135 2.980664 -2.9968476 -2.93604 2.6111927 2.9931676 -2.9272914 2.9284878
-2.9269898 -2.9763606 2.9816809 -2.9554477 -3.0105438 -3.0025723 -3.001356 3.0283368
2.9399097 2.9343524 -2.9393308 -3.0235612 3.010882 2.999629 2.971842 -2.9550095
-2.9967666 -2.9869745 3.0324192 -3.0315058 2.8183303 3.0035865 -3.0036018 2.87269
2.9879625 -2.987324 -2.9260743 -2.9772177 2.9495854 -2.9521563 2.9431002 -3.006003
-0.025115557 -2.9322681 2.9553072 2.9884112 -2.928099 -2.9581015 2.9580135 -2.986107
3.0305657 -2.9776242 3.0204232 -2.9870248 -3.0424597 2.948486 -0.05254767 -3.0435908
3.0283856 -2.9270616 3.0367486 3.0405698 -3.0129347 2.7362905 -2.8531976 2.9420698
2.9638927 3.0309603 3.027754 -2.976298 2.9326391 -2.927709 -2.962557 3.0308
3.0433316 2.9456089 2.9812415 -2.9803264 -2.9352553 -3.0157788 2.943831 3.040736
3.0051413 -2.9920757 0.0128989 2.9414337 2.9191425 -2.9838762 -2.9623847 -2.959331
2.970212 -3.0082583 3.0005274 -2.9606285 2.9315782 2.9804451 3.0028212 2.9810345
-3.0112743 -3.003509 -2.9347131 -3.0062344 -3.027762 -2.9502819 -2.921988 -2.9904218
-3.0312738 3.0259476 2.9474852 -3.0097353 2.9826143 -3.0164514 2.9156325 2.9594443
00000000: 1540 3e40 dfaa 42c0 1ad9 3ec0 3c61 3bc0
00000010: ef49 3e40 4d16 4140 0586 3fc0 5dbf 4140
00000020: 675e 3cc0 4f7b 3dc0 2b76 41c0 6a3d 4140
00000030: dd9d 4040 508a 3fc0 68aa 90bc c720 3e40
00000040: 2029 4140 33c3 3e40 5acc 3fc0 14e8 3bc0
00000050: c81d 2740 0f90 3f40 be58 3bc0 586c 3b40
00000060: cd53 3bc0 b17c 3ec0 dcd3 3e40 0e26 3dc0
00000070: c0ac 40c0 252a 40c0 3716 40c0 45d0 4140
00000080: 7b27 3c40 6ecc 3b40 ff1d 3cc0 0782 41c0
00000090: 4ab2 4040 ecf9 3f40 a932 3e40 e01e 3dc0
000000a0: 06cb 3fc0 972a 3fc0 2813 4240 3104 42c0
000000b0: 865f 3440 c33a 4040 033b 40c0 27da 3740
000000c0: c73a 3f40 5130 3fc0 cd44 3bc0 bc8a 3ec0
000000d0: 02c6 3c40 21f0 3cc0 c15b 3c40 5a62 40c0
000000e0: 24bf cdbc 48aa 3bc0 c123 3d40 2142 3f40
000000f0: f965 3bc0 8951 3dc0 1850 3d40 611c 3fc0
00000100: caf4 4140 6591 3ec0 9d4e 4140 6a2b 3fc0
00000110: a9b7 42c0 ffb3 3c40 3a3c 57bd 31ca 42c0
00000120: 12d1 4140 fa54 3bc0 175a 4240 b298 4240
00000130: ecd3 40c0 621f 2f40 ca9a 36c0 df4a 3c40
00000140: 6bb0 3d40 41fb 4140 b9c6 4140 ab7b 3ec0
00000150: 5cb0 3b40 965f 3bc0 899a 3dc0 a1f8 4140
00000160: f2c5 4240 db84 3c40 a9cc 3e40 abbd 3ec0
00000170: 39db 3bc0 8502 41c0 ba67 3c40 6b9b 4240
00000180: 3c54 4040 2b7e 3fc0 e855 533c 7340 3c40
00000190: 3bd3 3a40 d4f7 3ec0 b697 3dc0 ae65 3dc0
000001a0: f417 3e40 4e87 40c0 a408 4040 f07a 3dc0
000001b0: fa9e 3b40 9dbf 3e40 392e 4040 45c9 3e40
000001c0: b8b8 40c0 7e39 40c0 57d2 3bc0 2566 40c0
000001d0: dac6 41c0 6bd1 3cc0 da01 3bc0 1263 3fc0
000001e0: 6400 42c0 20a9 4140 99a3 3c40 819f 40c0
000001f0: 27e3 3e40 8a0d 41c0 b999 3a40 8967 3d40

model.4.weight f4 [64, 128]
2.9389637 3.0242054 3.0487106 2.9475987 -1.3985734 2.893609 1.2744411 2.9652867
3.0170007 2.8961983 2.96165 3.0262604 3.0525858 3.059371 -0.071958385 3.0573378
2.9477913 2.9610639 3.023183 2.9080997 1.2952654 2.9518733 2.9867609 2.8993285
-2.727607 3.0307622 2.9474106 2.8869104 2.907757 2.9184165 2.891686 3.0293474
2.9629762 3.0264246 3.0637069 2.8510203 2.9654117 2.8821666 3.01414 2.9701583
2.8902745 2.8896914 3.0258713 2.922371 -1.2898467 2.9034185 2.9808342 -0.57776487
3.0172954 3.01729 2.821133 2.9501736 2.9952374 2.9891129 3.0088656 2.989387
-0.038107388 2.9360912 2.9831905 3.033877 2.8197148 2.897476 3.0656147 2.64519
3.0528865 3.0690987 2.9141355 -2.6292982 3.0412717 2.9675183 0.01776737 2.852058
3.0310833 2.9350982 2.9791691 2.993154 2.8619783 0.06603499 -2.8034234 2.7933424
3.0493097 2.9083002 3.047683 2.5315373 3.048544 3.0258615 2.9782143 2.919333
2.9725747 2.9000833 3.060169 2.9625394 2.9055848 2.7134058 2.8562243 2.9122493
2.947644 2.8940134 0.047033094 3.06128 -1.023359 2.9534705 2.900051 3.0014277
2.9777374 3.0127416 2.969148 3.059974 2.9469652 2.9860325 2.9371717 2.9839823
3.0003026 2.9769502 2.9770508 2.8288858 3.0284727 2.9180274 2.9430604 3.0499215
2.9073308 2.8983157 3.0007734 2.8012545 2.9362872 3.067624 3.0067801 2.9821596
-3.055504 2.6842973 -3.0325828 -3.0554612 2.868474 -2.9939964 -2.7922392 -3.0226097
-2.989742 -3.0115287 -3.0389626 -2.7567258 -2.9234128 -2.9910953 0.08269221 -3.046159
-2.9489172 -2.895673 -3.0228415 -2.9108808 -1.8112766 -3.0410519 -2.9865863 -2.9065592
2.8888423 -2.9640787 -2.9152217 -2.9896977 -3.0152202 -2.925303 -2.901816 -3.0658596
-2.995189 -2.808736 -3.0086176 -2.9882975 -2.901166 -3.0054367 -3.0571856 -3.006535
-3.0239713 -3.0163486 -2.9953632 -2.9631224 -1.9767904 -3.0648363 -2.9475162 2.0528185
-2.9603543 -2.9329429 -2.836859 -2.9131513 -3.019143 -3.062824 -2.979974 2.659494
-0.07319537 -3.0687852 -2.9024181 -2.806314 -2.9178998 -3.0269575 -3.0072396 -2.9835067
-2.906204 -3.0331795 -3.0307837 2.876955 -2.9283538 -2.92451 0.023910567 -3.0436249
-2.9694204 -3.0084808 -2.9683526 -2.9770567 -2.9391882 -1.4886732 2.7606297 2.1621568
-3.0132535 -2.980189 -2.995549 2.353114 -3.038341 -3.0526578 -2.9297597 -2.9096663
-2.8993008 -3.055777 -2.9673529 -3.0040145 -2.9278467 -2.8745055 -2.9383056 -2.930385
-3.0192766 -2.9600737 -0.06506477 -2.993934 -0.8350313 -2.6398993 -3.037968 -2.9603994
-2.9423783 -3.028466 -2.9419265 -3.0038946 -2.9338398 -3.0441418 -3.0470235 -3.0128462
-2.9250374 -2.9892497 -3.025553 2.925464 -3.0510776 -2.943174 -3.0353155 -2.9566226
-3.050736 -2.916104 -2.9992151 2.9079547 -3.0268385 -2.9006884 -3.020459 -3.0081193
00000000: fb17 3c40 958c 4140 131e 4340 75a5 3c40
00000010: 7404 b3bf e430 3940 e320 a33f 42c7 3d40
00000020: 8a16 4140 505b 3940 ac8b 3d40 40ae 4140
00000030: 915d 4340 bccc 4340 eb5e 93bd 6cab 4340
00000040: 9da8 3c40 1282 3d40 d57b 4140 4e1e 3a40
00000050: 42cb a53f 7eeb 3c40 1727 3f40 998e 3940
00000060: 1d91 2ec0 02f8 4140 60a2 3c40 24c3 3840
00000070: b118 3a40 56c7 3a40 6211 3940 d4e0 4140
00000080: 67a1 3d40 f1b0 4140 c613 4440 1e77 3640
00000090: 4ec9 3d40 6b75 3840 abe7 4040 1317 3e40
000000a0: 42fa 3840 b4f0 3840 e0a7 4140 2008 3b40
000000b0: b219 a5bf 9cd1 3940 fdc5 3e40 66e8 13bf
000000c0: 5e1b 4140 481b 4140 718d 3440 a5cf 3c40
000000d0: f8b1 3f40 a04d 3f40 4191 4040 1e52 3f40
000000e0: 7e16 1cbd ebe8 3b40 98ec 3e40 0a2b 4240
000000f0: 3576 3440 3f70 3940 0833 4440 cb4a 2940
00000100: 7e62 4340 1d6c 4440 3281 3a40 6c46 28c0
00000110: 32a4 4240 d2eb 3d40 e08c 913c 1e88 3640
00000120: 45fd 4140 a6d8 3b40 b5aa 3e40 d68f 3f40
00000130: a72a 3740 5a3d 873d 4a6b 33c0 1fc6 3240
00000140: e427 4340 9721 3a40 3d0d 4340 b504 2240
00000150: 581b 4340 b7a7 4140 109b 3e40 5ad6 3a40
00000160: aa3e 3e40 f79a 3940 cfd9 4340 3f9a 3d40
00000170: 1af5 3940 71a8 2d40 61cc 3640 4b62 3a40
00000180: 33a6 3c40 8437 3940 c6a5 403d 03ec 4340
00000190: 6dfd 82bf a905 3d40 709a 3940 6417 4040
000001a0: 4093 3e40 c2d0 4040 8506 3e40 9dd6 4340
000001b0: 149b 3c40 281b 3f40 9ffa 3b40 91f9 3e40
000001c0: f504 4040 5a86 3e40 0088 3e40 770c 3540
000001d0: 7fd2 4140 f6c0 3a40 1a5b 3c40 ea31 4340
000001e0: b511 3a40 017e 3940 ac0c 4040 c147 3340
000001f0: 21ec 3b40 f453 4440 166f 4040 b4db 3e40
00000200: 618d 43c0 87cb 2b40 d615 42c0 ad8c 43c0
00000210: 1495 3740 a39d 3fc0 0cb4 32c0 7072 41c0
00000220: ef57 3fc0 e3bc 40c0 5d7e 42c0 326e 30c0
00000230: 3219 3bc0 1b6e 3fc0 895a a93d 45f4 42c0
00000240: 0fbb 3cc0 b552 39c0 3c76 41c0 df4b 3ac0
00000250: e9d7 e7bf 98a0 42c0 3b24 3fc0 1105 3ac0
00000260: cbe2 3840 77b3 3dc0 fe92 3ac0 3557 3fc0
00000270: 5ef9 40c0 2a38 3bc0 5ab7 39c0 0b37 44c0
00000280: 2db1 3fc0 55c2 33c0 318d 40c0 4440 3fc0
00000290: b4ac 39c0 1359 40c0 eea8 43c0 126b 40c0
000002a0: bf88 41c0 db0b 41c0 08b4 3fc0 cca3 3dc0
000002b0: 7807 fdbf 4726 44c0 1ba4 3cc0 6161 0340
000002c0: 7276 3dc0 56b5 3bc0 198f 35c0 1271 3ac0
000002d0: a439 41c0 4f05 44c0 e5b7 3ec0 2635 2a40
000002e0: 74e7 95bd fa66 44c0 38c1 39c0 a69a 33c0
000002f0: dfbe 3ac0 acb9 41c0 9d76 40c0 c6f1 3ec0
00000300: 3fff 39c0 9d1f 42c0 5cf8 41c0 0820 3840
00000310: 266a 3bc0 2c2b 3bc0 18e0 c33c c0ca 42c0
00000320: fc0a 3ec0 f38a 40c0 7df9 3dc0 1988 3ec0
00000330: a91b 3cc0 d88c bebf 28ae 3040 c760 0a40
00000340: 25d9 40c0 6bbb 3ec0 13b7 3fc0 6b99 1640
00000350: 2e74 42c0 bf5e 43c0 2f81 3bc0 f937 3ac0
00000360: 258e 39c0 da91 43c0 1ce9 3dc0 c641 40c0
00000370: d761 3bc0 e6f7 37c0 330d 3cc0 6e8b 3bc0
00000380: d43b 41c0 d971 3dc0 ae40 85bd 9d9c 3fc0
00000390: 9cc4 55bf 1cf4 28c0 116e 42c0 2f77 3dc0
000003a0: ed4f 3cc0 63d2 41c0 8648 3cc0 cf3f 40c0
000003b0: 08c4 3bc0 38d3 42c0 6f02 43c0 79d2 40c0
000003c0: d033 3bc0 de4f 3fc0 a9a2 41c0 cd3a 3b40
000003d0: db44 43c0 f65c 3cc0 9c42 42c0 4e39 3dc0
000003e0: 423f 43c0 73a1 3ac0 24f3 3fc0 ee1b 3a40
000003f0: b9b7 41c0 e1a4 39c0 334f 41c0 0785 40c0

model.4.bias f4 [64]
3.030409 -2.9415352 2.9415526 -2.957592 3.0649233 -2.9035735 -0.014032744 -2.9825816
2.8635674 2.9986465 2.899346 -0.07736059 -3.0006888 3.04015 2.9052155 -2.9986448
3.0185344 -0.07994048 -0.060931846 -3.0356781 -0.07526317 -0.05303952 3.009119 3.0557036
-2.896808 2.9616492 2.9911969 2.8706582 -2.9713914 -2.9992623 -0.0030487552 -0.0826312
-2.9565623 3.007295 -0.0455244 -2.9943318 -0.01992409 3.0162148 -3.061377 3.0334957
-3.0373242 2.9907393 2.9053202 2.6151109 -3.0354874 3.0549269 2.960311 -2.907631
3.0278916 2.9044259 3.0152924 -0.061840594 3.0211406 -0.07734932 -2.9312012 3.0471156
-2.9155872 -0.047205523 2.9635787 -2.9722435 -0.05193107 -2.9906423 -3.0228248 -2.940829
00000000: 39f2 4140 1d42 3cc0 6642 3c40 3049 3dc0
00000010: b427 4440 26d4 39c0 98e9 65bc 9ee2 3ec0
00000020: b044 3740 d3e9 3f40 e38e 3940 3b6f 9ebd
00000030: 490b 40c0 d191 4240 0def 3940 cce9 3fc0
00000040: ab2f 4140 d6b7 a3bd ac93 79bd 8d48 42c0
00000050: 9423 9abd f83f 59bd 6895 4040 a690 4340
00000060: 4d65 39c0 a98b 3d40 c56f 3f40 ddb8 3740
00000070: 472b 3ec0 eaf3 3fc0 a0cd 47bb 8c3a a9bd
00000080: 5138 3dc0 8577 4040 cb77 3abd 22a3 3fc0
00000090: d837 a3bc aa09 4140 9aed 43c0 cb24 4240
000000a0: 8563 42c0 4668 3f40 c4f0 3940 fa5d 2740
000000b0: 6d45 42c0 ec83 4340 bc75 3d40 a016 3ac0
000000c0: fac8 4140 1de2 3940 8dfa 4040 904c 7dbd
000000d0: 5e5a 4140 5269 9ebd cd98 3bc0 f103 4340
000000e0: fb98 3ac0 945a 41bd 46ab 3d40 3d39 3ec0
000000f0: acb5 54bd af66 3fc0 f675 41c0 8b36 3cc0

model.6.weight f4 [32, 64]
2.9594378 2.966775 2.9479268 3.0130417 2.9696019 2.8668654 0.09008299 -1.9648725
-2.333908 2.9326456 -1.6398637 0.10663128 3.0601835 3.07333 2.7564232 2.9917955
2.886512 0.04004456 -0.03912796 2.9734402 0.014302298 0.08315757 2.991508 2.8648503
3.0296113 2.947505 2.8640914 -0.022387892 2.9535341 2.8886452 0.1218798 -0.096751094
2.8923435 3.0952203 0.04970099 2.8715334 -0.040983066 3.0608494 2.8681712 3.047378
2.8254306 3.06677 2.84983 -0.050800934 3.0794287 2.8681266 2.9004302 3.0103486
2.8814468 0.091600865 3.0365438 0.09310964 3.0437512 -0.08416723 3.0203981 3.0227773
2.9702542 -0.11286043 2.9203098 2.9902976 0.01736401 3.0107574 3.029383 2.9502466
-3.0421245 -2.9172807 -3.0283391 -2.9643803 -3.02391 -2.962526 0.0066125095 2.1898098
2.126018 -2.9487283 2.6048937 -0.031969786 -2.954955 -2.9276717 -1.4141718 -2.9167893
-2.8836648 -0.100332454 -0.023773208 -2.9134498 0.02561608 0.027080864 -3.0772185 -3.0084753
-2.9444385 -2.89433 -2.8628876 0.13167787 -2.9580383 -3.011737 0.012833044 0.093345314
-3.0424323 -3.0491586 -0.06213127 -2.8814404 -0.103676096 -3.083539 -1.4267313 -2.9374363
-2.99192 -3.0805058 -2.7160883 -0.8315974 -2.97164 -3.0073602 -2.969101 -3.097696
-2.9384449 -2.6478634 -3.0938237 0.007622987 -3.0198615 -0.09915173 -3.060258 -2.8832316
-3.094236 0.07317798 -3.049989 -3.056602 0.00015084445 -3.079639 -2.8451948 -3.049048
-2.9480755 -2.9453464 -2.9250066 -3.0681608 -3.0648632 -2.8831913 0.047544643 2.7238607
2.628786 -3.0452487 2.7891312 -0.04688351 -3.0193267 -3.085733 -2.889544 -2.9250798
-2.9244041 -0.04147251 0.06134896 -2.9068696 0.09625223 0.01022695 -2.9010105 -2.9776354
-3.036114 -3.079017 -3.009125 0.4785721 -2.9855764 -2.8960135 -0.018367246 0.041148424
-2.9045658 -2.9404464 -0.123165324 -2.9664228 -0.11335695 -2.9597862 -2.8516598 -2.878799
-2.982608 -2.864139 -3.0093968 -1.5621102 -2.9911463 -3.0616224 -2.9086368 -2.9600925
-2.9821882 -2.9164586 -2.9569921 -0.038278714 -3.0440807 -0.06107679 -2.9142587 -3.0742743
-2.9137647 -0.0716245 -3.0716395 -2.888663 0.08452937 -3.089274 -2.862612 -3.0205438
-0.072656184 -0.10864262 -0.06891248 -0.10833502 -0.017362043 0.08877435 0.025866449 0.08441968
0.0266933 -0.090290144 -0.03284292 0.08604212 0.015004441 0.105075166 0.027472273 -0.03210154
0.09449662 -0.041416794 0.0355663 0.09830584 -0.10329117 -0.106949404 0.010414705 0.049282193
0.008164987 0.00289011 0.104374334 0.007854283 0.05004087 -0.031760916 -0.018788755 -0.07258612
-0.08757314 0.09048751 0.06856908 -0.09225796 -0.0987027 -0.059649765 0.09468283 0.10161431
0.06979932 0.043694094 -0.08281244 -0.11863685 0.10049039 0.094917834 -0.046546012 -0.115032285
-0.075022906 0.12313905 0.066777095 0.024845287 -0.059740946 0.031007826 -0.042389065 0.028484508
0.068629146 -0.10397206 -0.030643433 -0.045837447 -0.0684679 0.070281 -0.07257962 -0.044049546
00000000: 6e67 3d40 a4df 3d40 d5aa 3c40 add5 4040
00000010: f50d 3e40 b97a 3740 6e7d b83d f180 fbbf
00000020: c05e 15c0 77b0 3b40 0ee7 d1bf 8061 da3d
00000030: 0cda 4340 70b1 4440 3d69 3040 9479 3f40
00000040: 9dbc 3840 c405 243d a444 20bd d84c 3e40
00000050: 3054 6a3c 844e aa3d de74 3f40 b559 3740
00000060: 27e5 4140 eca3 3c40 464d 3740 d066 b7bc
00000070: b406 3d40 90df 3840 1e9c f93d 7025 c6bd
00000080: 281c 3940 1718 4640 4493 4b3d 34c7 3740
00000090: dcdd 27bd f5e4 4340 1e90 3740 3e08 4340
000000a0: dbd3 3440 f645 4440 9d63 3640 a414 50bd
000000b0: 5c15 4540 638f 3740 a6a0 3940 8da9 4040
000000c0: a069 3840 3c99 bb3d bc56 4240 44b0 be3d
000000d0: d2cc 4240 de5f acbd 344e 4140 2f75 4140
000000e0: a518 3e40 5e23 e7bd 5be6 3a40 0961 3f40
000000f0: f83e 8e3c 40b0 4040 69e1 4140 d7d0 3c40
00000100: 2bb2 42c0 bab4 3ac0 4fd0 41c0 68b8 3dc0
00000110: be87 41c0 079a 3dc0 c0ad d83b d825 0c40
00000120: ae10 0840 f7b7 3cc0 94b6 2640 c0f2 02bd
00000130: fc1d 3dc0 f95e 3bc0 9503 b5bf adac 3ac0
00000140: f78d 38c0 1a7b cdbd 08c0 c2bc f675 3ac0
00000150: d0d8 d13c b0d8 dd3c 26f1 44c0 dc8a 40c0
00000160: ae71 3cc0 b43c 39c0 8d39 37c0 90d6 063e
00000170: 8050 3dc0 4dc0 40c0 b041 523c d42b bf3d
00000180: 36b7 42c0 6a25 43c0 5c7d 7ebd 8569 38c0
00000190: 2254 d4bd b458 45c0 229f b6bf f5fe 3bc0
000001a0: 9e7b 3fc0 0227 45c0 64d4 2dc0 91e3 54bf
000001b0: 5a2f 3ec0 9778 40c0 c005 3ec0 a740 46c0
000001c0: 7b0f 3cc0 9876 29c0 3501 46c0 40ca f93b
000001d0: 6945 41c0 1010 cbbd 44db 43c0 de86 38c0
000001e0: f607 46c0 56de 953d 0533 43c0 5e9f 43c0
000001f0: 002c 1e39 ce18 45c0 ac17 36c0 9a23 43c0
00000200: 45ad 3cc0 8e80 3cc0 4f33 3bc0 bf5c 44c0
00000210: b826 44c0 3586 38c0 2cbe 423d bc53 2e40
00000220: 083e 2840 5be5 42c0 2081 3240 ec08 40bd
00000230: a63c 41c0 a67c 45c0 4aee 38c0 8234 3bc0
00000240: 7029 3bc0 14df 29bd 0c49 7b3d 270a 3ac0
00000250: e41f c53d f08e 273c 28aa 39c0 9491 3ec0
00000260: b14f 42c0 9d0e 45c0 8195 40c0 6707 f53e
00000270: af13 3fc0 4958 39c0 e876 96bc 408b 283d
00000280: 68e4 39c0 4630 3cc0 1a3e fcbd dfd9 3dc0
00000290: b027 e8bd 236d 3dc0 9881 36c0 3e3e 38c0
000002a0: 0de3 3ec0 0e4e 37c0 f599 40c0 3af3 c7bf
000002b0: f16e 3fc0 9ff1 43c0 1b27 3ac0 2872 3dc0
000002c0: 2cdc 3ec0 42a7 3ac0 5c3f 3dc0 24ca 1cbd
000002d0: 38d2 42c0 a82b 7abd 3783 3ac0 e9c0 44c0
000002e0: 1f7b 3ac0 deaf 92bd be95 44c0 dbdf 38c0
000002f0: bc1d ad3d aab6 45c0 0935 37c0 9750 41c0
00000300: c4cc 94bd 0680 debd fc21 8dbd c0de ddbd
00000310: d83a 8ebc 54cf b53d e0e5 d33c 3ae4 ac3d
00000320: e8ab da3c 0aea b8bd 4c86 06bd da36 b03d
00000330: 30d5 753c a631 d73d 880d e13c e87c 03bd
00000340: 7287 c13d a8a4 29bd f8ad 113d 9254 c93d
00000350: 528a d3bd 4a08 dbbd 70a2 2a3c 20dc 493d
00000360: 70c6 053c 0068 3d3b 36c2 d53d 40af 003c
00000370: a8f7 4c3d bc17 02bd e0ea 99bc 08a8 94bd
00000380: 8c59 b3bd 8451 b93d f26d 8c3d bef1 bcbd
00000390: a424 cabd 5053 74bd 12e9 c13d 2a1b d03d
000003a0: f2f2 8e3d 94f8 323d 9299 a9bd e0f7 f2bd
000003b0: e8cd cd3d 4864 c23d 08a7 3ebd 0c96 ebbd
000003c0: 9ca5 99bd 5430 fc3d 6ec2 883d 5888 cb3c
000003d0: ecb2 74bd 2004 fe3c 28a0 2dbd 5858 e93c
000003e0: 708d 8c3d 4eef d4bd f007 fbbc 0cc0 3bbd
000003f0: e638 8cbd 7cef 8f3d a0a4 94bd 4c6d 34bd

model.6.bias f4 [32]
3.0141773 -2.9609375 -2.8995678 -0.06240329 -2.9229496 -0.070664436 2.995474 -0.04502
-0.06635493 -2.9682608 -2.9859285 -2.9399006 -2.9363909 2.98208 -0.093746185 -2.9726186
-0.10478869 3.0382833 0.007504031 -0.056691796 2.9443944 -0.09206325 -2.993528 -2.9121406
2.9733179 3.0410545 -2.8723915 -2.8915508 -2.9372354 -2.9005427 3.0144713 -0.08374855
00000000: 48e8 4040 0080 3dc0 8592 39c0 989a 7fbd
00000010: 9b11 3bc0 84b8 90bd d9b5 3f40 e466 38bd
00000020: 18e5 87bd fcf7 3dc0 7419 3fc0 5527 3cc0
00000030: d4ed 3bc0 66da 3e40 00fe bfbd 623f 3ec0
00000040: 749b d6bd 3c73 4240 60e4 f53b a835 68bd
00000050: f570 3c40 a88b bcbd f695 3fc0 8360 3ac0
00000060: d74a 3e40 a3a0 4240 43d5 37c0 2b0f 39c0
00000070: aafb 3bc0 7ea2 39c0 19ed 4040 5c84 abbd

model.8.weight f4 [1, 32]
-3.109444 -2.9196625 -2.8146365 -0.03999135 -2.8105004 -0.014214829 -3.1189568 0.1292684
-0.07929645 -2.8205628 -2.9698257 -2.8708613 -2.494728 -2.9844348 -0.08865231 -2.9315727
-0.16762912 -3.1421456 0.16607608 -0.032769486 -3.0039093 0.09278758 -2.9754188 -2.962853
-3.073789 -3.1159136 -2.8302696 -2.9126296 -2.829711 -2.8098085 -3.0681348 -0.08972706
00000000: 2101 47c0 c0db 3ac0 0123 34c0 f8cd 23bd
00000010: 3ddf 33c0 50e5 68bc fd9c 47c0 ef5e 043e
00000020: 2d66 a2bd 1a84 34c0 a011 3ec0 31bc 37c0
00000030: a0a9 1fc0 fb00 3fc0 588f b5bd e39e 3bc0
00000040: f8a6 2bbe ea18 49c0 d90f 2a3e 4c39 06bd
00000050: 0d40 40c0 6a07 be3d 436d 3ec0 629f 3dc0
00000060: f5b8 44c0 216b 47c0 2323 35c0 8668 3ac0
00000070: fc19 35c0 e7d3 33c0 525c 44c0 d2c2 b7bd
